----------------------------------------------------------------
        Layer (type)               Output Shape         Param #
================================================================
            Conv2d-1            [-1, 6, 28, 28]             456
              Tanh-2            [-1, 6, 28, 28]               0
         AvgPool2d-3            [-1, 6, 14, 14]               0
            Conv2d-4           [-1, 16, 10, 10]           2,416
              Tanh-5           [-1, 16, 10, 10]               0
 AdaptiveAvgPool2d-6             [-1, 16, 1, 1]               0
            Linear-7                    [-1, 1]              16
              ReLU-8                    [-1, 1]               0
            Linear-9                   [-1, 16]              16
          Sigmoid-10                   [-1, 16]               0
          SEBlock-11           [-1, 16, 10, 10]               0
        AvgPool2d-12             [-1, 16, 5, 5]               0
          Flatten-13                  [-1, 400]               0
           Linear-14                  [-1, 120]          48,120
             Tanh-15                  [-1, 120]               0
           Linear-16                   [-1, 84]          10,164
             Tanh-17                   [-1, 84]               0
           Linear-18                   [-1, 10]             850
================================================================
Total params: 62,038
Trainable params: 62,038
Non-trainable params: 0
----------------------------------------------------------------
Input size (MB): 0.01
Forward/backward pass size (MB): 0.13
Params size (MB): 0.24
Estimated Total Size (MB): 0.38
----------------------------------------------------------------
#Params: 0.1M
14:00:10 --- Start training loop	training on: cuda
…
