----------------------------------------------------------------
        Layer (type)               Output Shape         Param #
================================================================
            Conv2d-1            [-1, 6, 28, 28]             456
              Tanh-2            [-1, 6, 28, 28]               0
         AvgPool2d-3            [-1, 6, 14, 14]               0
            Conv2d-4           [-1, 16, 10, 10]           2,416
       BatchNorm2d-5           [-1, 16, 10, 10]              32
              Tanh-6           [-1, 16, 10, 10]               0
 AdaptiveAvgPool2d-7             [-1, 16, 1, 1]               0
            Linear-8                    [-1, 1]              16
              ReLU-9                    [-1, 1]               0
           Linear-10                   [-1, 16]              16
          Sigmoid-11                   [-1, 16]               0
          SEBlock-12           [-1, 16, 10, 10]               0
        AvgPool2d-13             [-1, 16, 5, 5]               0
          Flatten-14                  [-1, 400]               0
           Linear-15                  [-1, 120]          48,120
             Tanh-16                  [-1, 120]               0
           Linear-17                   [-1, 84]          10,164
             Tanh-18                   [-1, 84]               0
           Linear-19                   [-1, 10]             850
================================================================
Total params: 62,070
Trainable params: 62,070
Non-trainable params: 0
----------------------------------------------------------------
Input size (MB): 0.01
Forward/backward pass size (MB): 0.14
Params size (MB): 0.24
Estimated Total Size (MB): 0.39
----------------------------------------------------------------
#Params: 0.1M
02:58:10 --- Start training loop	training on: cuda
…
