----------------------------------------------------------------
        Layer (type)               Output Shape         Param #
================================================================
            Conv2d-1            [-1, 6, 28, 28]             456
       BatchNorm2d-2            [-1, 6, 28, 28]              12
              Tanh-3            [-1, 6, 28, 28]               0
         AvgPool2d-4            [-1, 6, 14, 14]               0
            Conv2d-5           [-1, 16, 10, 10]           2,416
       BatchNorm2d-6           [-1, 16, 10, 10]              32
              Tanh-7           [-1, 16, 10, 10]               0
         AvgPool2d-8             [-1, 16, 5, 5]               0
           Flatten-9                  [-1, 400]               0
           Linear-10                  [-1, 120]          48,120
             Tanh-11                  [-1, 120]               0
           Linear-12                   [-1, 84]          10,164
             Tanh-13                   [-1, 84]               0
           Linear-14                   [-1, 10]             850
================================================================
Total params: 62,050
Trainable params: 62,050
Non-trainable params: 0
----------------------------------------------------------------
Input size (MB): 0.01
Forward/backward pass size (MB): 0.16
Params size (MB): 0.24
Estimated Total Size (MB): 0.41
----------------------------------------------------------------
#Params: 0.1M
18:12:41 --- Start training loop	training on: cuda
…
