----------------------------------------------------------------
        Layer (type)               Output Shape         Param #
================================================================
            Conv2d-1            [-1, 6, 28, 28]             456
              ReLU-2            [-1, 6, 28, 28]               0
         MaxPool2d-3            [-1, 6, 14, 14]               0
            Conv2d-4           [-1, 16, 10, 10]           2,416
              ReLU-5           [-1, 16, 10, 10]               0
         MaxPool2d-6             [-1, 16, 5, 5]               0
           Flatten-7                  [-1, 400]               0
            Linear-8                  [-1, 120]          48,120
              ReLU-9                  [-1, 120]               0
           Linear-10                   [-1, 84]          10,164
             ReLU-11                   [-1, 84]               0
           Linear-12                   [-1, 10]             850
================================================================
Total params: 62,006
Trainable params: 62,006
Non-trainable params: 0
----------------------------------------------------------------
Input size (MB): 0.01
Forward/backward pass size (MB): 0.11
Params size (MB): 0.24
Estimated Total Size (MB): 0.36
----------------------------------------------------------------
#Params: 0.1M
04:56:38 --- Start training loop	training on: cuda
…
