----------------------------------------------------------------
        Layer (type)               Output Shape         Param #
================================================================
            Conv2d-1            [-1, 6, 30, 30]             168
            Conv2d-2            [-1, 6, 28, 28]             330
       BatchNorm2d-3            [-1, 6, 28, 28]              12
              ReLU-4            [-1, 6, 28, 28]               0
 AdaptiveAvgPool2d-5              [-1, 6, 1, 1]               0
            Linear-6                    [-1, 0]               0
              ReLU-7                    [-1, 0]               0
            Linear-8                    [-1, 6]               0
           Sigmoid-9                    [-1, 6]               0
          SEBlock-10            [-1, 6, 28, 28]               0
        MaxPool2d-11            [-1, 6, 14, 14]               0
           Conv2d-12           [-1, 16, 12, 12]             880
           Conv2d-13           [-1, 16, 10, 10]           2,320
      BatchNorm2d-14           [-1, 16, 10, 10]              32
             ReLU-15           [-1, 16, 10, 10]               0
AdaptiveAvgPool2d-16             [-1, 16, 1, 1]               0
           Linear-17                    [-1, 1]              16
             ReLU-18                    [-1, 1]               0
           Linear-19                   [-1, 16]              16
          Sigmoid-20                   [-1, 16]               0
          SEBlock-21           [-1, 16, 10, 10]               0
        MaxPool2d-22             [-1, 16, 5, 5]               0
          Flatten-23                  [-1, 400]               0
           Linear-24                  [-1, 120]          48,120
             ReLU-25                  [-1, 120]               0
           Linear-26                   [-1, 84]          10,164
             ReLU-27                   [-1, 84]               0
           Linear-28                   [-1, 10]             850
================================================================
Total params: 62,908
Trainable params: 62,908
Non-trainable params: 0
----------------------------------------------------------------
Input size (MB): 0.01
Forward/backward pass size (MB): 0.27
Params size (MB): 0.24
Estimated Total Size (MB): 0.52
----------------------------------------------------------------
#Params: 0.1M
02:58:19 --- Start training loop	training on: cuda
…
