----------------------------------------------------------------
        Layer (type)               Output Shape         Param #
================================================================
            Conv2d-1            [-1, 6, 30, 30]             168
            Conv2d-2            [-1, 6, 28, 28]             330
       BatchNorm2d-3            [-1, 6, 28, 28]              12
              ReLU-4            [-1, 6, 28, 28]               0
 AdaptiveAvgPool2d-5              [-1, 6, 1, 1]               0
            Linear-6                    [-1, 0]               0
              ReLU-7                    [-1, 0]               0
            Linear-8                    [-1, 6]               0
           Sigmoid-9                    [-1, 6]               0
          SEBlock-10            [-1, 6, 28, 28]               0
        MaxPool2d-11            [-1, 6, 14, 14]               0
           Conv2d-12           [-1, 16, 12, 12]             880
           Conv2d-13           [-1, 16, 10, 10]           2,320
      BatchNorm2d-14           [-1, 16, 10, 10]              32
             ReLU-15           [-1, 16, 10, 10]               0
        MaxPool2d-16             [-1, 16, 5, 5]               0
          Flatten-17                  [-1, 400]               0
           Linear-18                  [-1, 120]          48,120
             ReLU-19                  [-1, 120]               0
           Linear-20                   [-1, 84]          10,164
             ReLU-21                   [-1, 84]               0
           Linear-22                   [-1, 10]             850
================================================================
Total params: 62,876
Trainable params: 62,876
Non-trainable params: 0
----------------------------------------------------------------
Input size (MB): 0.01
Forward/backward pass size (MB): 0.26
Params size (MB): 0.24
Estimated Total Size (MB): 0.51
----------------------------------------------------------------
#Params: 0.1M
01:54:12 --- Start training loop	training on: cuda
…
