----------------------------------------------------------------
        Layer (type)               Output Shape         Param #
================================================================
            Conv2d-1            [-1, 6, 28, 28]             456
       BatchNorm2d-2            [-1, 6, 28, 28]              12
              Tanh-3            [-1, 6, 28, 28]               0
         AvgPool2d-4            [-1, 6, 14, 14]               0
            Conv2d-5           [-1, 16, 10, 10]           2,416
       BatchNorm2d-6           [-1, 16, 10, 10]              32
              Tanh-7           [-1, 16, 10, 10]               0
 AdaptiveAvgPool2d-8             [-1, 16, 1, 1]               0
            Linear-9                    [-1, 1]              16
             ReLU-10                    [-1, 1]               0
           Linear-11                   [-1, 16]              16
          Sigmoid-12                   [-1, 16]               0
          SEBlock-13           [-1, 16, 10, 10]               0
        AvgPool2d-14             [-1, 16, 5, 5]               0
          Flatten-15                  [-1, 400]               0
           Linear-16                  [-1, 120]          48,120
             Tanh-17                  [-1, 120]               0
           Linear-18                   [-1, 84]          10,164
             Tanh-19                   [-1, 84]               0
           Linear-20                   [-1, 10]             850
================================================================
Total params: 62,082
Trainable params: 62,082
Non-trainable params: 0
----------------------------------------------------------------
Input size (MB): 0.01
Forward/backward pass size (MB): 0.18
Params size (MB): 0.24
Estimated Total Size (MB): 0.42
----------------------------------------------------------------
#Params: 0.1M
19:22:51 --- Start training loop	training on: cuda
…
