----------------------------------------------------------------
        Layer (type)               Output Shape         Param #
================================================================
            Conv2d-1            [-1, 6, 28, 28]             456
       BatchNorm2d-2            [-1, 6, 28, 28]              12
              Tanh-3            [-1, 6, 28, 28]               0
 AdaptiveAvgPool2d-4              [-1, 6, 1, 1]               0
            Linear-5                    [-1, 0]               0
              ReLU-6                    [-1, 0]               0
            Linear-7                    [-1, 6]               0
           Sigmoid-8                    [-1, 6]               0
           SEBlock-9            [-1, 6, 28, 28]               0
        AvgPool2d-10            [-1, 6, 14, 14]               0
           Conv2d-11           [-1, 16, 10, 10]           2,416
      BatchNorm2d-12           [-1, 16, 10, 10]              32
             Tanh-13           [-1, 16, 10, 10]               0
AdaptiveAvgPool2d-14             [-1, 16, 1, 1]               0
           Linear-15                    [-1, 1]              16
             ReLU-16                    [-1, 1]               0
           Linear-17                   [-1, 16]              16
          Sigmoid-18                   [-1, 16]               0
          SEBlock-19           [-1, 16, 10, 10]               0
        AvgPool2d-20             [-1, 16, 5, 5]               0
          Flatten-21                  [-1, 400]               0
           Linear-22                  [-1, 120]          48,120
             Tanh-23                  [-1, 120]               0
           Linear-24                   [-1, 84]          10,164
             Tanh-25                   [-1, 84]               0
           Linear-26                   [-1, 10]             850
================================================================
Total params: 62,082
Trainable params: 62,082
Non-trainable params: 0
----------------------------------------------------------------
Input size (MB): 0.01
Forward/backward pass size (MB): 0.21
Params size (MB): 0.24
Estimated Total Size (MB): 0.46
----------------------------------------------------------------
#Params: 0.1M
21:42:56 --- Start training loop	training on: cuda
…
